name: "wazuhl_DQN"
layer {
  name: "experience_replay_state"
  type: "MemoryData"
  top: "data"
  top: "redundant1"
  include {
    phase: TRAIN
  }
  memory_data_param 
  {
    batch_size: ${MINIBATCH_SIZE}
    channels: ${NUMBER_OF_FEATURES}
    height: 1
    width: 1
  }
}
layer {
  name: "experience_replay_action"
  type: "MemoryData"
  top: "data_action"
  top: "redundant2"
  include {
    phase: TRAIN
  }
  memory_data_param
  {
    batch_size: ${MINIBATCH_SIZE}
    channels: ${NUMBER_OF_ACTIONS}
    height: 1
    width: 1
  }
}
layer {
  name: "flatten"
  type: "Flatten"
  top: "flatten_data_action"
  bottom: "data_action"
  include {
    phase: TRAIN
  }
}
layer {
  name: "live_input_state"
  type: "MemoryData"
  top: "data"
  top: "redundant3"
  include {
    phase: TEST
  }
  memory_data_param 
  {
    batch_size: 1
    channels: ${NUMBER_OF_FEATURES}
    height: 1
    width: 1
  }
}
layer {
  name: "norm"
  type: "BatchNorm"
  bottom: "data"
  top: "norm_data"
}
layer {
  name: "ip1"
  type: "InnerProduct"
  bottom: "norm_data"
  top: "ip1"
  inner_product_param {
    num_output: ${HIDDEN_SIZE}
    weight_filler {
      type: "gaussian"
      std: 0.01
    }
  }
}
layer {
  name: "relu1"
  type: "ReLU"
  bottom: "ip1"
  top: "relu1"
}
layer {
  name: "ip2"
  type: "InnerProduct"
  bottom: "relu1"
  top: "ip2"
  inner_product_param {
    num_output: ${HIDDEN_SIZE}
    weight_filler {
      type: "gaussian"
      std: 0.01
    }
  }
}
layer {
  name: "relu2"
  type: "ReLU"
  bottom: "ip2"
  top: "relu2"
}
layer {
  name: "ip3"
  type: "InnerProduct"
  bottom: "relu2"
  top: "ip3"
  inner_product_param {
    num_output: ${NUMBER_OF_ACTIONS}
    weight_filler {
      type: "gaussian"
      std: 0.01
    }
  }
}
layer {
  name: "tanh"
  type: "TanH"
  bottom: "ip3"
  top: "tanh"
}
layer {
  name: "scale"
  type: "Power"
  bottom: "tanh"
  top: "scaled"
  power_param {
    power: 1
    scale: 20
    shift: 0
  }
}
layer {
  name: "bias"
  type: "Bias"
  bottom: "scaled"
  top: "Q_values"
  bias_param {
    filler {
      type: "constant"
      value: 0
    }
  }
}
layer {
  name: "eltwise"
  type: "Eltwise"
  bottom: "Q_values"
  bottom: "flatten_data_action"
  top: "filtered_Q_values"
  eltwise_param {
    operation: PROD
  }
  include {
    phase: TRAIN
  }
}

layer {
  name: "experience_replay_value"
  type: "MemoryData"
  top: "experience_replay_value"
  top: "redundant3"
  include {
    phase: TRAIN
  }
  memory_data_param
  {
    batch_size: ${MINIBATCH_SIZE}
    channels: ${NUMBER_OF_ACTIONS}
    height: 1
    width: 1
  }
}
layer {
  name: "silence_train"
  type: "Silence"
  bottom: "redundant1"
  bottom: "redundant2"
  include {
    phase: TRAIN
  }
}
layer {
  name: "silence_test"
  type: "Silence"
  bottom: "redundant3"
  include {
    phase: TEST
  }
}
layer {
  name: "loss"
  type: "EuclideanLoss"
  bottom: "Q_values"
  bottom: "experience_replay_value"
  top: "loss"
  include {
    phase: TRAIN
  }
}
