name: "wazuhl_DQN"
layer {
  name: "experience_replay_state"
  type: "MemoryData"
  top: "data"
  top: "redundant_train_1"
  include {
    phase: TRAIN
  }
  memory_data_param 
  {
    batch_size: ${MINIBATCH_SIZE}
    channels: ${NUMBER_OF_FEATURES}
    height: 1
    width: 1
  }
}
layer {
  name: "experience_replay_action"
  type: "MemoryData"
  top: "data_action"
  top: "redundant_train_2"
  include {
    phase: TRAIN
  }
  memory_data_param
  {
    batch_size: ${MINIBATCH_SIZE}
    channels: ${NUMBER_OF_ACTIONS}
    height: 1
    width: 1
  }
}
layer {
  name: "experience_replay_context"
  type: "MemoryData"
  top: "context"
  top: "redundant_train_3"
  include {
    phase: TRAIN
  }
  memory_data_param
  {
    batch_size: ${MINIBATCH_SIZE}
    channels: 1
    height: ${CONTEXT_SIZE}
    width: 1
  }
}
layer {
  name: "experience_replay_clip"
  type: "MemoryData"
  top: "clip"
  top: "redundant_train_4"
  include {
    phase: TRAIN
  }
  memory_data_param
  {
    batch_size: ${MINIBATCH_SIZE}
    channels: 1
    height: ${CONTEXT_SIZE}
    width: 1
  }
}
layer {
  name: "flatten"
  type: "Flatten"
  top: "flatten_data_action"
  bottom: "data_action"
  include {
    phase: TRAIN
  }
}
layer {
  name: "live_input_state"
  type: "MemoryData"
  top: "data"
  top: "redundant_test_1"
  include {
    phase: TEST
  }
  memory_data_param 
  {
    batch_size: 1
    channels: ${NUMBER_OF_FEATURES}
    height: 1
    width: 1
  }
}
layer {
  name: "live_input_context"
  type: "MemoryData"
  top: "context"
  top: "redundant_test_2"
  include {
    phase: TEST
  }
  memory_data_param 
  {
    batch_size: 1
    channels: 1
    height: ${CONTEXT_SIZE}
    width: 1
  }
}

layer {
  name: "live_input_clip"
  type: "MemoryData"
  top: "clip"
  top: "redundant_test_3"
  include {
    phase: TEST
  }
  memory_data_param 
  {
    batch_size: 1
    channels: 1
    height: ${CONTEXT_SIZE}
    width: 1
  }
}


layer {
  name: "flatten_context"
  type: "Flatten"
  bottom: "context"
  top: "flat_context"
}

layer {
  name: "flatten_clip"
  type: "Flatten"
  bottom: "clip"
  top: "flat_clip"
}

layer {
  name: "embedding"
  type: "Embed"
  bottom: "flat_context"
  top: "context_embedding"
  param {
   lr_mult: 1
  }
  embed_param {
   bias_term: false
   input_dim: ${CONTEXT_ALPHABET_SIZE} # alphabet size
   num_output: ${CONTEXT_EMBEDDING_SIZE}
   weight_filler {
    type: "uniform"
    min: -0.1
    max: 0.1
   }
 }
}

layer {
  name: "lstm"
  type: "LSTM"
  bottom: "context_embedding"
  bottom: "flat_clip"
  top: "lstm"
  recurrent_param {
    num_output: ${CONTEXT_LSTM_SIZE}
  }
}


layer {
  name: "flatten_lstm"
  type: "Flatten"
  bottom: "lstm"
  top: "flat_lstm"
}

layer {
  name: "encoder"
  type: "InnerProduct"
  bottom: "flat_lstm"
  top: "context_encoded"
  inner_product_param {
    num_output: ${CONTEXT_LSTM_SIZE}
    weight_filler {
      type: "gaussian"
      std: 0.01
    }
  }
}

layer {
  name: "norm"
  type: "BatchNorm"
  bottom: "data"
  top: "norm_data"
}
layer {
  name: "ip1"
  type: "InnerProduct"
  bottom: "norm_data"
  top: "ip1"
  inner_product_param {
    num_output: ${HIDDEN_SIZE_1}
    weight_filler {
      type: "gaussian"
      std: 0.01
    }
  }
}
layer {
  name: "relu1"
  type: "ReLU"
  bottom: "ip1"
  top: "relu1"
}
layer {
  name: "ip2"
  type: "InnerProduct"
  bottom: "relu1"
  top: "ip2"
  inner_product_param {
    num_output: ${HIDDEN_SIZE_2}
    weight_filler {
      type: "gaussian"
      std: 0.01
    }
  }
}
layer {
  name: "relu2"
  type: "ReLU"
  bottom: "ip2"
  top: "relu2"
}

layer {
  name: "concat"
  type: "Concat"
  bottom: "relu2"
  bottom: "context_encoded"
  top: "state_encoded"
  concat_param {
    axis: 1
  }
}


layer {
  name: "action_ip1"
  type: "InnerProduct"
  bottom: "state_encoded"
  top: "action_ip1"
  inner_product_param {
    num_output: ${ACTION_HIDDEN_SIZE}
    weight_filler {
      type: "gaussian"
      std: 0.01
    }
  }
}
layer {
  name: "action_relu1"
  type: "ReLU"
  bottom: "action_ip1"
  top: "action_relu1"
}
layer {
  name: "action_ip2"
  type: "InnerProduct"
  bottom: "action_relu1"
  top: "action_ip2"
  inner_product_param {
    num_output: ${NUMBER_OF_ACTIONS}
    weight_filler {
      type: "gaussian"
      std: 0.01
    }
  }
}
layer {
  name: "action_tanh"
  type: "TanH"
  bottom: "action_ip2"
  top: "action_tanh"
}
layer {
  name: "scale"
  type: "Power"
  bottom: "action_tanh"
  top: "action_scaled"
  power_param {
    power: 1
    scale: 20
    shift: 0
  }
}
layer {
  name: "action_bias"
  type: "Bias"
  bottom: "action_scaled"
  top: "A_advantage"
  bias_param {
    filler {
      type: "constant"
      value: 0
    }
  }
}
layer {
  name: "mean"
  type: "Reduction"
  bottom: "A_advantage"
  top: "mean_advantage"
  reduction_param {
    operation: MEAN
    axis: 1
  }
}
layer {
  name: "reshape"
  type: "Reshape"
  bottom: "mean_advantage"
  top: "rmean_advantage"
  reshape_param {
    shape {
      dim: 0  # copy the dimension from below
      dim: 1
    }
  }
}
layer {
  name: "negation"
  type: "Power"
  bottom: "rmean_advantage"
  top: "negative_mean_advantage"
  power_param {
    power: 1
    scale: -1
    shift: 0
  }
}
layer {
  name: "tile_mean"
  type: "Tile"
  bottom: "negative_mean_advantage"
  top: "nm_advantage"
  tile_param {
    tiles: ${NUMBER_OF_ACTIONS}
    axis: 1
  }
}
layer {
  name: "delta"
  type: "Eltwise"
  bottom: "A_advantage"
  bottom: "nm_advantage"
  top: "delta_advantage"
  eltwise_param {
    operation: SUM
  }
}
layer {
  name: "ip3"
  type: "InnerProduct"
  bottom: "state_encoded"
  top: "ip3"
  inner_product_param {
    num_output: 1
    weight_filler {
      type: "gaussian"
      std: 0.01
    }
  }
}
layer {
  name: "tanh"
  type: "TanH"
  bottom: "ip3"
  top: "tanh"
}
layer {
  name: "scale"
  type: "Power"
  bottom: "tanh"
  top: "scaled"
  power_param {
    power: 1
    scale: 20
    shift: 0
  }
}
layer {
  name: "bias"
  type: "Bias"
  bottom: "scaled"
  top: "V_value"
  bias_param {
    filler {
      type: "constant"
      value: 0
    }
  }
}

layer {
  name: "tile"
  type: "Tile"
  bottom: "V_value"
  top: "V_values"
  tile_param {
    tiles: ${NUMBER_OF_ACTIONS}
  }
}
layer {
  name: "sum"
  type: "Eltwise"
  bottom: "delta_advantage"
  bottom: "V_values"
  top: "Q_values"
  eltwise_param {
    operation: SUM
  }
}

layer {
  name: "eltwise"
  type: "Eltwise"
  bottom: "Q_values"
  bottom: "flatten_data_action"
  top: "filtered_Q_values"
  eltwise_param {
    operation: PROD
  }
  include {
    phase: TRAIN
  }
}

layer {
  name: "experience_replay_value"
  type: "MemoryData"
  top: "experience_replay_value"
  top: "redundant_train_5"
  include {
    phase: TRAIN
  }
  memory_data_param
  {
    batch_size: ${MINIBATCH_SIZE}
    channels: ${NUMBER_OF_ACTIONS}
    height: 1
    width: 1
  }
}
layer {
  name: "silence_train"
  type: "Silence"
  bottom: "redundant_train_1"
  bottom: "redundant_train_2"
  bottom: "redundant_train_3"
  bottom: "redundant_train_4"
  bottom: "redundant_train_5"
  include {
    phase: TRAIN
  }
}
layer {
  name: "silence_test"
  type: "Silence"
  bottom: "redundant_test_1"
  bottom: "redundant_test_2"
  bottom: "redundant_test_3"
  include {
    phase: TEST
  }
}
layer {
  name: "loss"
  type: "EuclideanLoss"
  bottom: "filtered_Q_values"
  bottom: "experience_replay_value"
  top: "loss"
  include {
    phase: TRAIN
  }
}
